data/mlruns/0/28c975e8801e45e588870a66cb377616/artifacts/model/data/model.pth (torch, 246279 bytes, 6 tensors)

weight f4 [16, 6, 16, 16]
0	0x3c8b579f	0.017009554
1	0x3caeee53	0.021353876
2	0xbb7d936b	-0.0038692604
3	0x3cc86587	0.024462475
4	0xbbf59057	-0.0074940133
5	0x3b98b2ae	0.004659972
6	0xbc3a44ec	-0.011368971
7	0x3c8bd48d	0.017069126
8	0x3cbd9dd9	0.023146557
9	0xbc892f30	-0.016746134
10	0x3ca075eb	0.019587478
11	0xb99cc6f4	-0.0002990287
12	0x3c93f039	0.018058883
13	0xbb5637fd	-0.003268718
14	0x3b65e0b8	0.003507657
15	0xbc797ff4	-0.01522826
16	0x3ca10e2e	0.019660082
17	0x3bad82c3	0.005295129
18	0xbbe5cc50	-0.0070128813
19	0x3c3c3c0a	0.011488924
20	0xbc097937	-0.008390716
21	0xb9b7ea8b	-0.00035079228
22	0xbbf0e2e8	-0.007351268
23	0x3ca51a40	0.020154119
24	0xbc8f12f2	-0.017465089
25	0xbc358359	-0.011078679
26	0xbc5e61af	-0.013573094
27	0xbca33478	-0.01992248
28	0xbb70e40f	-0.0036757027
29	0xbd098886	-0.033577465
30	0x3c5accd2	0.013354497
31	0xbd1713d5	-0.036884148
32	0x3caeab93	0.021322047
33	0x3bee92ef	0.0072806994
34	0xba970e7c	-0.0011524702
35	0x3ccc8cb3	0.024969434
36	0x3c4d3409	0.012524613
37	0x3cf61168	0.030037597
38	0x3c1025cc	0.008798074
39	0xbbb2067c	-0.005432902
40	0x3bf0259a	0.007328701
41	0xbc1d2a66	-0.009592628
42	0x3bdaf7b7	0.006682362
43	0x3c909360	0.017648399
44	0x3be2036c	0.0068973806
45	0xbcca2814	-0.024677314
46	0xbac3b185	-0.0014930224
47	0xbc5652df	-0.013081281
48	0x3ca81211	0.020516427
49	0xbc149336	-0.009068301
50	0xbc72b849	-0.014814445
51	0x3b9074f8	0.004408475
52	0xbbb9ad6d	-0.005666426
53	0x3cf9d66e	0.030497756
54	0x3c93b968	0.018032745
55	0x3c8433b8	0.016137943
56	0x3c15fcbe	0.009154497
57	0xba806bba	-0.000979773
58	0x3c762c59	0.015025222
59	0xbcde03dd	-0.027101452
60	0xbc7ad1d9	-0.015308821
61	0xbd0ad19a	-0.033891298
62	0xbc008b14	-0.007845659
63	0xbcd3fa24	-0.025876112
64	0x3c99ffcd	0.018798733
65	0x3ba839bb	0.005133835
66	0x3d11eba1	0.035625104
67	0x3a14955a	0.0005668007
68	0x3a55d454	0.00081569445
69	0x3b0aeac7	0.0021197067
70	0x3d2588b4	0.040413573
71	0x3c9f8019	0.019470261
72	0x3d024fb4	0.031814292
73	0xbcd284f0	-0.025698155
74	0xbd148c05	-0.036266346
75	0xbd07bb07	-0.033137348
76	0xbcf60c4f	-0.030035166
77	0xbbb4cead	-0.0055178017
78	0xbc14219c	-0.009041216
79	0xb9b64eb5	-0.00034772386
80	0x3bbe3b1f	0.0058053876
81	0x3b89123b	0.0041830814
82	0x3d0ee9e1	0.034891013
83	0x3c2d6cdf	0.010585039
84	0x3d109ea1	0.03530753
85	0x3cadd623	0.021220272
86	0x3d213c36	0.039364062
87	0xbbab4aae	-0.0052274084
88	0xbc16dfa4	-0.0092085935
89	0x3aebbf9a	0.0017986179
90	0xbbd2a1d6	-0.0064279838
91	0xbc8bcbee	-0.017065015
92	0x3b89cb8a	0.004205172
93	0xba3a92ef	-0.0007117232
94	0xbd2089e3	-0.039194
95	0xbd176948	-0.03696564
96	0x3d4a70fd	0.04942416
97	0x3c8f5b12	0.01749948
98	0x3c988d1e	0.018621977
99	0x3b33ed10	0.0027454533
100	0x3c5a8208	0.013336666
101	0x3d12b26d	0.03581469
102	0x3cc8a00a	0.024490375
103	0xbb1d1308	-0.0023967642
104	0x3bce42c8	0.006294582
105	0xbcd30de1	-0.025763454
106	0xbd0775c6	-0.033071302
107	0xbcc4e087	-0.024032844
108	0xbd273c42	-0.04082895
109	0xbd121820	-0.03566754
110	0x3b8a7781	0.0042256718
111	0xbcb46351	-0.022020014
112	0x3d0a52b4	0.033770278
113	0x3b420f70	0.0029611252
114	0x3c31628b	0.010826717
115	0x3c7b223e	0.015327988
116	0x3cffd271	0.031228276
117	0x3bd3205c	0.0064430665
118	0x3c9585c8	0.018252268
119	0x3b78a1be	0.0037938203
120	0xb90da816	-0.00013509425
121	0xbc9d0481	-0.019167187
122	0xbc8d48b1	-0.017246576
123	0xbd01723f	-0.031603094
124	0xbcfdbc50	-0.030973583
125	0xbd0a0b23	-0.033702027
126	0xbcf72b87	-0.030172123
127	0xbd24b916	-0.040215574
128	0x3d3ed7a0	0.046592355
129	0x3cb7c869	0.02243443
130	0x3d486711	0.048926417
131	0x3d106498	0.035252184
132	0x3bd79892	0.006579467
133	0x3d42d81e	0.047569387
134	0x3ca76a7b	0.020436516
135	0x3c3c8561	0.011506409
136	0xbce562ff	-0.028001307
137	0xbd251c70	-0.040310323
138	0xbc07f06d	-0.008297068
139	0xbc9d5537	-0.019205673
140	0xbbd93937	-0.006629135
141	0xbd29238c	-0.041293666
142	0xbb38d778	-0.0028204601
143	0xbd3828d0	-0.044960797
144	0x3ce37702	0.027766708
145	0x3d1af8f6	0.037835084
146	0x3d38a468	0.045078665
147	0x3d5385fe	0.051641457
148	0x3d53e86f	0.051735338
149	0x3c044a07	0.00807429
150	0x3d192004	0.037384048
151	0xbbdb6cb5	-0.0066963085
152	0xbc643224	-0.01392797
153	0xbd0dc1b0	-0.034608543
154	0x3be57341	0.0070022647
155	0xbd1a6d42	-0.037701853
156	0xbbfd53de	-0.007730945
157	0xbc9174d5	-0.017755905
158	0xbca9a531	-0.020708652
159	0xbd2175b5	-0.039418895
160	0x3d6a4411	0.05719382
161	0x3d20b68b	0.039236587
162	0x3d15785b	0.036491733
163	0x3c0b34ac	0.008496445
164	0x3d265f8e	0.04061847
165	0x3cc52f69	0.024070458
166	0x3b5b9295	0.0033504118
167	0x3c97f63b	0.018550029
168	0xbc292ede	-0.010326115
169	0xbd0a0dd2	-0.033704586
170	0xbd0a9ab1	-0.03383893
171	0xbcc967a6	-0.024585556
172	0xbc28bf63	-0.010299536
173	0xbd016c26	-0.03159728
174	0xbd2ff4af	-0.042957958
175	0xbd1469d5	-0.03623374
176	0x3ca11043	0.019661075
177	0x3d4319ed	0.047632147
178	0x3d7aa963	0.061196696
179	0x3c65f13e	0.014034567
180	0x3d294e51	0.041334454
181	0x3d0dcf52	0.034621544
182	0x3bcc75f5	0.0062396475
183	0xbc947818	-0.018123671
184	0xbae4e3f4	-0.0017462955
185	0xbbaa0a0d	-0.0051891864
186	0xbc51e4f8	-0.012810938
187	0xbccf1101	-0.025276663
188	0xbd05586b	-0.032555025
189	0xbcd0a76d	-0.02547046
190	0xbd0d6aa8	-0.034525543
191	0xbd259532	-0.040425487
192	0x3d685c0e	0.056728415
193	0x3d80718e	0.06271659
194	0x3d03e881	0.032204155
195	0x3cde8be3	0.027166313
196	0x3ce0b695	0.027430812
197	0x3bfc9872	0.0077086026
198	0x3be78326	0.0070651947
199	0xba9c6202	-0.0011931064
200	0xbd2bbeb1	-0.041929904
201	0xbd087144	-0.033311144
202	0xbb8dc1f7	-0.004326101
203	0xbc74e448	-0.014947005
204	0xbcc7280c	-0.024311088
205	0xbd20ae31	-0.039228622
206	0xbd1eb12a	-0.038743176
207	0xbd4baaea	-0.049723543
208	0x3ce1e2da	0.027573992
209	0x3d2d87b0	0.04236573
210	0x3d432383	0.04764129
211	0x3d24ad8f	0.04020458
212	0xbca3306d	-0.019920552
213	0xbcba6896	-0.022754949
214	0xbc93cad3	-0.01804105
215	0x3c2d6e30	0.010585353
216	0xbc9e31ec	-0.019310914
217	0xbd01f746	-0.03172996
218	0xbc603a2b	-0.013685743
219	0xbd10368a	-0.035208263
220	0xbd1e1b48	-0.038600236
221	0xbbcfe43e	-0.0063443473
222	0xbd1a9185	-0.037736434
223	0xbd060844	-0.032722726
224	0x38a61b0e	7.920536e-05
225	0x3d1a2b2c	0.03763883
226	0x3d19c074	0.037537053
227	0x3c6221ea	0.013802031
228	0xbcb82265	-0.022477338
229	0xbd1c1783	-0.03810836
230	0xbd2b0831	-0.04175586
231	0xb753b45b	-1.2618572e-05
232	0xbc6b6abc	-0.014368709
233	0xbbaa5e63	-0.00519924
234	0xbc19a2f5	-0.009377231
235	0xbc8b5aa1	-0.017010989
236	0xbcb0b883	-0.021572357
237	0xbd3ecaf2	-0.046580262
238	0xbd4a2945	-0.049355764
239	0xbd5e7fc3	-0.05432106
240	0x3cfcff15	0.030883351
241	0xbb45c578	-0.0030177515
242	0xbb98a6b3	-0.004658544
243	0xbc9c761b	-0.019099286
244	0xbc7224f9	-0.014779323
245	0xbd0bc263	-0.03412093
246	0xbd0b011a	-0.033936597
247	0xbc1f8e28	-0.009738483
248	0xbcfad56e	-0.03061935
249	0xbbfb204c	-0.007663762
250	0xbcddcf68	-0.027076438
251	0xbd12d655	-0.035848934
252	0xbcbc0be7	-0.022954894
253	0xbd107785	-0.035270233
254	0xbd16cd25	-0.036816735
255	0xbd5fb010	-0.054611266

bias f4 [16]
0	0x3c7058b8	0.01466959
1	0xbc8397b2	-0.016063545
2	0x3ca882eb	0.020570239
3	0xbc5d9d8f	-0.013526334
4	0xbb90c96b	-0.004418542
5	0xbac8e7c9	-0.0015327866
6	0xbcd22602	-0.02565289
7	0x3c9d50e3	0.019203609
8	0xbccd6872	-0.025074217
9	0x3bd52a85	0.006505313
10	0xbc482f3c	-0.012218293
11	0x3c2da4f3	0.010598409
12	0x3bc77402	0.0060868273
13	0xbc00093b	-0.007814701
14	0xbc9123ed	-0.017717326
15	0x3c20ed2c	0.009822171

weight f4 [8, 16, 16, 16]
0	0x3bbbe8a1	0.0057345186
1	0xbc63bb7d	-0.013899681
2	0x3c7f6e87	0.015590317
3	0xbc483b13	-0.012221116
4	0xbc42c517	-0.01188781
5	0xbc0d29dd	-0.008615938
6	0xbc838ff0	-0.016059846
7	0xbb9c5346	-0.004770669
8	0x3ab0db74	0.0013493137
9	0x3bf7395a	0.0075446786
10	0x3b3d52fa	0.002888857
11	0x3bf0f2d7	0.0073531675
12	0xbc11f110	-0.008907571
13	0x3c184f1e	0.009296207
14	0xbc7847e8	-0.015153863
15	0xbc9f3279	-0.019433247
16	0xbbb0ed7c	-0.005399404
17	0xbbb1c4f3	-0.0054250895
18	0xbc365283	-0.011128071
19	0x39ba15f8	0.00035493053
20	0xbcb8374b	-0.022487303
21	0x3c45bc91	0.0120688835
22	0x3c12ce7b	0.008960362
23	0xbc2bdacf	-0.01048918
24	0xbcb02f7a	-0.021507014
25	0xbca80bbe	-0.020513412
26	0xbcbff619	-0.023432778
27	0xbc5a905d	-0.013340083
28	0xbca5f535	-0.020258525
29	0x3c05794f	0.008146598
30	0x3caaaf32	0.020835493
31	0xbc9aab16	-0.018880408
32	0xbc2c4ad0	-0.010515884
33	0x3aa1cdb3	0.0012344628
34	0x3c058f86	0.008151894
35	0xbbb59cce	-0.005542374
36	0xbc16b630	-0.00919871
37	0xbc05c852	-0.008165436
38	0xbbc4a71f	-0.0060013677
39	0x3b758fb9	0.0037469699
40	0xbbc5e5dd	-0.0060393647
41	0xbd21b18c	-0.039475963
42	0xbd0408ae	-0.03223484
43	0xb9a65cc3	-0.000317311
44	0xbc88f55f	-0.016718565
45	0xbcb315e2	-0.02186102
46	0xbaf1872b	-0.0018427124
47	0x3a748c2c	0.00093287486
48	0xbcbe76a1	-0.023249926
49	0x3bddca17	0.0067684758
50	0xbcb2c50b	-0.021822473
51	0x3bdaec33	0.006680989
52	0x3c5af320	0.01336363
53	0xbc5dd110	-0.013538614
54	0xbba2eaa9	-0.0049718213
55	0x3a37b165	0.000700733
56	0xbc270adf	-0.010195463
57	0xbcac598e	-0.021038797
58	0xbd02f2bd	-0.031969775
59	0xbba1935a	-0.0049308958
60	0x3baf3011	0.005346306
61	0xbc56ab7e	-0.01310241
62	0xbb380778	-0.0028080624
63	0xbcb302fb	-0.021852007
64	0x3b82feeb	0.0039976737
65	0x39cf1b58	0.0003950249
66	0xbc66ce69	-0.014087298
67	0xbb8d78bb	-0.0043173707
68	0x3c546b8f	0.012965097
69	0xbc39ef90	-0.01134862
70	0xbc9fc9e3	-0.019505447
71	0x3c041edd	0.008063999
72	0x3b8afecd	0.0042418004
73	0xbc5af379	-0.0133637125
74	0xbb4eb258	-0.0031539407
75	0xbbf6a47c	-0.0075269323
76	0x3b4199ee	0.0029541212
77	0xbc4e3e39	-0.012588077
78	0xbcaf37bd	-0.021388883
79	0xbca4a234	-0.020096876
80	0xbb37eff2	-0.0028066603
81	0xbc5b0d20	-0.013369828
82	0xbd20cd37	-0.039258208
83	0xbc8d6fff	-0.017265318
84	0xbcce888a	-0.025211591
85	0xbd05059e	-0.03247606
86	0x3b43c67f	0.0029872952
87	0x3c04e301	0.008110763
88	0x3c869542	0.016428594
89	0xbb3b1d5a	-0.002855143
90	0xbb7d2a9e	-0.0038630138
91	0xbbdc699b	-0.0067264563
92	0xbc26c99f	-0.010179906
93	0xbcc209d6	-0.02368633
94	0xbc291fbd	-0.010322508
95	0xbc84abfc	-0.01619529
96	0xbb82d85c	-0.003993077
97	0xbc59d0d8	-0.013294421
98	0xb8d8d5c5	-0.000103395
99	0xbbc86aba	-0.0061162384
100	0x3bfac772	0.0076531703
101	0x3b90f64f	0.0044238935
102	0x3c8e5afe	0.017377373
103	0x3d083567	0.033254053
104	0x3b28930a	0.0025722408
105	0xbcb71be0	-0.022352159
106	0xbbc7ee9b	-0.006101442
107	0xbb078c29	-0.0020682907
108	0x3c5f4a22	0.0136285145
109	0xbbd385de	-0.006455167
110	0xbc75af34	-0.014995385
111	0x3b9b2da4	0.0047356654
112	0xbb9f97b1	-0.004870378
113	0xbc9007f6	-0.017581921
114	0x3bedf8c1	0.00726232
115	0x3b88f185	0.004179182
116	0xbc3e3195	-0.011608501
117	0xbc50df8b	-0.012748609
118	0xba03ebb8	-0.0005032378
119	0x3cb845d5	0.022494236
120	0x3a070580	0.0005150661
121	0xbc66f006	-0.014095312
122	0xbcaaf53b	-0.020868888
123	0xbc063d6e	-0.008193357
124	0xbb878078	-0.0041351877
125	0xbbdbced4	-0.0067080054
126	0xbc9f5c6c	-0.01945325
127	0x3b9b568f	0.004740543
128	0xbcecc636	-0.028903108
129	0xbd127272	-0.035753675
130	0xbc575b17	-0.013144276
131	0x3bba0d2d	0.00567784
132	0xbd087025	-0.033310074
133	0xbc08e030	-0.008354232
134	0x3c509956	0.012731871
135	0x3c161031	0.009159134
136	0x3c37c200	0.011215687
137	0xbc63070b	-0.01385666
138	0xbcf7aa14	-0.030232467
139	0x3c224aad	0.009905499
140	0x3ce4fb6a	0.027951915
141	0x3cb69f2e	0.0222927
142	0xbb7af0d6	-0.0038290522
143	0x3b6354d3	0.003468801
144	0xbd457be1	-0.048213843
145	0xbb900846	-0.0043955175
146	0xbbabb344	-0.005239876
147	0xbc220dc0	-0.009890974
148	0xbca30eae	-0.01990446
149	0xbc9403cb	-0.018068215
150	0x3b908473	0.0044103204
151	0x3c5eb5a8	0.013593115
152	0x3ca8a61e	0.020587023
153	0xbc0c6c6b	-0.008570771
154	0xb9a8637e	-0.00032117584
155	0xbc51f701	-0.012815238
156	0x3c561e3a	0.01306873
157	0x3c994a45	0.018712172
158	0xbca01153	-0.01953951
159	0xbb3f96fa	-0.0029234276
160	0xbcca60a3	-0.024704283
161	0xbc51b174	-0.012798656
162	0x3c98978c	0.01862695
163	0xbc9cf3d2	-0.019159231
164	0xbbf18a32	-0.0073712105
165	0x3c9537a7	0.018215014
166	0x3ca0d0f2	0.019630883
167	0x3c955f40	0.018233895
168	0xbca0cebc	-0.019629829
169	0xbc2f95d0	-0.01071687
170	0x3c633506	0.013867622
171	0xbb4d77ba	-0.003135188
172	0x3c05f380	0.008175731
173	0x3c40c0e5	0.01176474
174	0xbb9ba0ff	-0.004749417
175	0x3bcdd989	0.0062820357
176	0xbc3c3894	-0.011488099
177	0x3c822f54	0.015891708
178	0x3c85201b	0.01625066
179	0xbcd56157	-0.026047392
180	0xbc7177a8	-0.014738001
181	0x3c72bc40	0.01481539
182	0x3c9295e3	0.017893737
183	0x3d0214df	0.031758185
184	0xbc57895d	-0.013155309
185	0xbc201f49	-0.009773084
186	0xbc047c14	-0.008086223
187	0xbc4c4b8d	-0.012469185
188	0x3c30d197	0.010792158
189	0x3cdf35dc	0.027247362
190	0x3cd82117	0.026382966
191	0x3ced21b8	0.028946742
192	0x3be17b04	0.0068811197
193	0x3cef18a1	0.029186549
194	0xbb06b2d2	-0.0020553363
195	0xbca47a75	-0.020077923
196	0xbc855930	-0.01627788
197	0xbb331cbe	-0.0027330364
198	0x3b3196bf	0.0027097908
199	0x3cd75cff	0.026289461
200	0xba869c87	-0.0010270037
201	0xbb97f769	-0.004637648
202	0xbca1691a	-0.019703437
203	0x3c3568d7	0.011072359
204	0xbc433453	-0.011914331
205	0x3a49cfd4	0.00076985103
206	0x3d01f153	0.031724285
207	0x3cbc969d	0.023021037
208	0xbc3250fd	-0.010883567
209	0x3d0a38aa	0.033745445
210	0xbca939ad	-0.020657385
211	0xbd867d9d	-0.065669276
212	0xbd5b7e34	-0.053587154
213	0xbc16c97f	-0.009203314
214	0xba534909	-0.00080598943
215	0x3a9d79a3	0.00120144
216	0x3b587212	0.0033026976
217	0xbbbbf8cd	-0.0057364465
218	0xbbe949d3	-0.0071193962
219	0x3c1bfcb0	0.009520695
220	0xbce44cfc	-0.02786874
221	0xbbc17672	-0.0059040124
222	0x3b867cd0	0.0041042343
223	0x3c5cc5b1	0.013474868
224	0x3b2df2dc	0.002654246
225	0x3cf0af6e	0.029380526
226	0x3cdce6d2	0.026965532
227	0xbcc0c73b	-0.0235325
228	0xbc77d2cf	-0.015125944
229	0xbbedfd31	-0.007262849
230	0xbcf9d392	-0.030496392
231	0xbb86d4d9	-0.004114729
232	0x3c113fe8	0.008865334
233	0xbc4456c7	-0.01198358
234	0x3c105736	0.008809855
235	0xbb61d176	-0.0034457124
236	0xbc4cb177	-0.012493483
237	0x3a580d63	0.0008241741
238	0x3bd0d1fe	0.0063726893
239	0xbba99092	-0.005174705
240	0xbbcd52d2	-0.0062659765
241	0x3c9d5d4f	0.019209532
242	0x3d0afa44	0.03393008
243	0xbbeac1b0	-0.0071642026
244	0xbc9083bd	-0.017640943
245	0xbd4ac0c1	-0.04950023
246	0xbd1262f1	-0.03573889
247	0x3b4b9a43	0.003106729
248	0x3badf73b	0.005309013
249	0x3b83b13f	0.004018932
250	0xbc254019	-0.010086083
251	0x3b47b3fb	0.0030472267
252	0x3b834e9a	0.004007173
253	0xbc203e14	-0.009780426
254	0xbc04a6e8	-0.008096434
255	0x3c78fbef	0.015196784

bias f4 [8]
0	0xbd44f6b8	-0.04808685
1	0xbd278572	-0.040898748
2	0xbd559a7f	-0.052149292
3	0xbd8a87d9	-0.06764192
4	0xbd3be9da	-0.045877315
5	0xbd1649d4	-0.0366915
6	0xbd20fd4c	-0.039304063
7	0xbd943fe8	-0.07238752

weight f4 [10, 280]
0	0xbcdbdde0	-0.026839197
1	0xbc6287c3	-0.013826313
2	0x3c03d5a3	0.00804654
3	0x3c8a442a	0.016878206
4	0xbb374660	-0.002796553
5	0xbc8d6e35	-0.017264465
6	0x3c023af6	0.007948628
7	0xbbc8f055	-0.0061321654
8	0xbd1e2050	-0.038605034
9	0x3d0f0e9f	0.034926053
10	0x3c405fe8	0.011741616
11	0xbc70e271	-0.014702425
12	0xbda79b0a	-0.08183868
13	0xbcdaec43	-0.026723986
14	0x3a82b2a0	0.0009971447
15	0xbd033dad	-0.03204124
16	0xbdbf4cd5	-0.093408264
17	0x3b25a7df	0.002527706
18	0xbb7a1772	-0.0038160947
19	0xbdca95b8	-0.09891838
20	0xbc397fdf	-0.011321991
21	0xbc8864d5	-0.016649643
22	0xbb29d33a	-0.0025913254
23	0xbd0d254f	-0.03445941
24	0xbd30eb44	-0.043193117
25	0xbd329414	-0.04359825
26	0xbe12a9d3	-0.14322595
27	0xbd3887c0	-0.045051336
28	0x3d1fc85a	0.03900943
29	0xbd45060a	-0.048101462
30	0xbd348926	-0.044076107
31	0xbd3a9ace	-0.04555779
32	0xbd857653	-0.06516709
33	0xbd3b9c80	-0.045803547
34	0x3d9e015a	0.077151015
35	0xbcfc7c21	-0.030820908
36	0x3b19f716	0.0023493222
37	0x3be5d4e2	0.007013903
38	0xbd51650b	-0.051121753
39	0x3c90ba5d	0.01766699
40	0xbc2b34bf	-0.010449587
41	0x3d8a9e3c	0.06768462
42	0xbd22f797	-0.0397869
43	0xbe1ca4cf	-0.15297244
44	0xbd51db4c	-0.05123453
45	0xbcebcd2f	-0.028784363
46	0xbce42ec4	-0.02785433
47	0xbc85ed37	-0.016348464
48	0x3d360cee	0.044445924
49	0xbc1db279	-0.009625071
50	0xbbe2fb67	-0.006926942
51	0xbc7ade63	-0.01531181
52	0x3bad9189	0.00529689
53	0xbd8e2c09	-0.06941993
54	0xbdc5d53a	-0.0965981
55	0x3d4484af	0.0479781
56	0x3c8d1f5b	0.017226866
57	0x3c19b165	0.009380673
58	0x3d3120a9	0.043244038
59	0xbdcff102	-0.101533905
60	0x3c6c9f0c	0.014442217
61	0xbcc605f0	-0.024172753
62	0xbd8c7617	-0.06858461
63	0x3cb08948	0.021549836
64	0x3d1166f8	0.03549859
65	0x3d5cf36e	0.05394309
66	0x3d05fbc2	0.032710798
67	0xbd351a8f	-0.04421478
68	0xbe1966da	-0.14980641
69	0xbde82d3a	-0.11336751
70	0xbd651ac5	-0.055933733
71	0xbd797027	-0.060897972
72	0xbc6db7b3	-0.014509129
73	0x3cbd2f74	0.023093916
74	0x3b80052a	0.0039068656
75	0xbc54bfa8	-0.012985148
76	0xbbb0a866	-0.0053911684
77	0x3d9294e8	0.07157308
78	0xbd158c63	-0.036510836
79	0xbcc3f7d3	-0.023921883
80	0x3c46ba6b	0.012129406
81	0x3a1e4d04	0.0006038698
82	0xbdd3b32f	-0.10336911
83	0xbd4776fa	-0.04869745
84	0x3da175d0	0.07883799
85	0xbc846a0f	-0.016163854
86	0xbc0bc09f	-0.008529811
87	0xbd105f1c	-0.035246953
88	0xbda86eab	-0.08224233
89	0xbe19fe7c	-0.15038484
90	0xbd988f8d	-0.07449255
91	0x3d98e31a	0.07465191
92	0xbc2b2903	-0.01044679
93	0xbd8510fe	-0.06497382
94	0xbba7e593	-0.005123803
95	0xbda2397a	-0.07921119
96	0xbbfa6d55	-0.007642428
97	0x3ab52698	0.0013820706
98	0xbd159a24	-0.036523953
99	0x3d80fbe5	0.06298045
100	0xbdb1b540	-0.08677149
101	0xbcd87a5b	-0.026425531
102	0xbc8cb31b	-0.017175248
103	0xbc8650fa	-0.016396035
104	0xbcdaaf7d	-0.026695007
105	0xbbdc4b52	-0.006722846
106	0xbd03fc39	-0.03222296
107	0x3cd34273	0.025788521
108	0xbe031d1f	-0.12804078
109	0x3d03a683	0.03214122
110	0xbd3307b5	-0.043708522
111	0x3bcb7861	0.0062094186
112	0xbcb86de2	-0.022513334
113	0xbbead36a	-0.007166316
114	0x3ca5b3b0	0.020227283
115	0xbd51769f	-0.051138517
116	0x3c2d124b	0.010563443
117	0xbce3c061	-0.027801694
118	0x3c0cbac3	0.008589449
119	0xbbcd8063	-0.0062714084
120	0xbda67e7a	-0.08129592
121	0x3c1f12a5	0.009709035
122	0x3d06742c	0.032825634
123	0xbb3a3f3c	-0.0028419038
124	0xbc99e11e	-0.018784102
125	0xbc98b55a	-0.018641163
126	0xbcd13dca	-0.025542159
127	0xbc971332	-0.01844177
128	0x3c4444bf	0.011979281
129	0x3d232fa4	0.039840356
130	0x3d93c973	0.07216158
131	0xbc857fd9	-0.016296314
132	0xbe04a614	-0.12953979
133	0xbd4594bc	-0.048237547
134	0x3ce7024f	0.028199343
135	0xbd198ea2	-0.03748954
136	0xbd27b66c	-0.040945455
137	0xbaa9aee2	-0.0012945796
138	0x3b5abdc8	0.0033377279
139	0xbd803f0c	-0.06262025
140	0xba8d0296	-0.0010758217
141	0x3be0d480	0.0068612695
142	0x3d4d45c6	0.05011537
143	0x3b509f7e	0.0031833346
144	0x3b0a565d	0.0021108605
145	0x3cca3779	0.024684655
146	0x3d259397	0.040423956
147	0x3c610bf7	0.013735763
148	0xbd1ea573	-0.038732003
149	0xbd21d69c	-0.039511308
150	0x3a6f3810	0.00091254804
151	0x3d15ac80	0.036541462
152	0x3acfc56d	0.0015851684
153	0xbce20650	-0.0275909
154	0xbd9a05d3	-0.07520642
155	0xbcab9e19	-0.02094941
156	0x3c62d36f	0.013844355
157	0x3d13ced1	0.036085907
158	0x3c2e9b28	0.010657109
159	0xbc3262b2	-0.010887789
160	0xbc84e5f6	-0.016222935
161	0x3b24c4bc	0.0025141677
162	0xbd32c92c	-0.043648884
163	0xbc824ee0	-0.015906751
164	0x3ca2ecab	0.019888243
165	0xbc05652a	-0.008141795
166	0xbcaea5e7	-0.021319343
167	0xbd699dda	-0.057035305
168	0x3b8a555c	0.0042216014
169	0x3c9813f5	0.018564204
170	0x3d284ea5	0.041090626
171	0xbd80d170	-0.06289947
172	0xbd5ba1ff	-0.05362129
173	0xbd68ecf5	-0.056866605
174	0xbd3c2c82	-0.045940883
175	0x3d38a230	0.04507655
176	0x3ca439f9	0.020047175
177	0xbb6ecb8a	-0.0036437237
178	0x3d4fe11c	0.05075179
179	0x3d1f1f6b	0.038848322
180	0x3c96a5aa	0.018389542
181	0xbc42645d	-0.011864749
182	0x3cabb5a8	0.020960644
183	0xbd18810a	-0.037232436
184	0xbd829bf4	-0.06377402
185	0x3baf89cd	0.0053570033
186	0x3ca40023	0.020019596
187	0x3c0f832b	0.0087593
188	0xbc2e0bb8	-0.010622911
189	0x3d386965	0.045022387
190	0x3d1a68d5	0.037697632
191	0xbc86545c	-0.016397648
192	0x3d4d6c98	0.05015239
193	0x3d6b16f0	0.05739492
194	0x3d0572cb	0.03258018
195	0xbc013ae7	-0.007887579
196	0xbc69a0f5	-0.014259567
197	0x3d55771a	0.052115537
198	0xba1ed016	-0.0006058229
199	0x3c6747fb	0.014116283
200	0x3d4d690e	0.050149016
201	0x3d141125	0.036149163
202	0xbb0596da	-0.0020384104
203	0x3bac31e8	0.0052549727
204	0x3bcb57b2	0.0062055225
205	0xbd392c07	-0.045208003
206	0xbd4670c0	-0.04844737
207	0xbd304201	-0.043031696
208	0xbd306190	-0.043061793
209	0x3d1429ec	0.036172792
210	0xbd0f8f05	-0.035048503
211	0xbb92a815	-0.0044756033
212	0xbc063966	-0.008192396
213	0xbe0bcc21	-0.13652088
214	0xbd768144	-0.06018187
215	0x3d0e0858	0.034675926
216	0xbc53d3ab	-0.012928884
217	0xbc044bc1	-0.008074702
218	0xbb25b8b8	-0.0025287103
219	0xbd69de4e	-0.057096772
220	0xbd233d3e	-0.039853327
221	0x3a64488f	0.0008708322
222	0x3ce66202	0.028122906
223	0x3d33b869	0.04387704
224	0xbc44106a	-0.011966804
225	0xbdab55d9	-0.083659835
226	0x3b971c32	0.0046115154
227	0xbcf5bbf3	-0.029996848
228	0xbcf55eee	-0.029952493
229	0xbd0b4ad7	-0.03400692
230	0x3d1fa27f	0.038973328
231	0xbcefe40a	-0.029283542
232	0xbd8194ab	-0.06327184
233	0xbd06b1d9	-0.032884452
234	0xbd61aa96	-0.055094324
235	0xbce5c5a5	-0.028048346
236	0x3b1f21a3	0.0024281524
237	0x3d40601a	0.04696665
238	0xbcd2aa82	-0.02571607
239	0x3c44bd16	0.012007972
240	0x3c609153	0.013706523
241	0xbbfa58ed	-0.0076399953
242	0xbd0178c4	-0.03160931
243	0x3cfb498e	0.030674722
244	0xbc0e4f2a	-0.008685866
245	0x3bd29983	0.0064269914
246	0x3cfed196	0.031105798
247	0x3c17a988	0.009256728
248	0xbd8758be	-0.06608723
249	0xbe1f992a	-0.15585771
250	0xbbe4a881	-0.006978095
251	0xbc413f7e	-0.011794923
252	0x3d8870f6	0.066621706
253	0x3c96da36	0.018414598
254	0xbc6f3e46	-0.0146022495
255	0xbd5b6660	-0.05356443

bias f4 [10]
0	0xbcbe4fa9	-0.023231344
1	0x3c679066	0.014133548
2	0x3d1b8900	0.03797245
3	0xbd02d9b2	-0.03194589
4	0x3d00372b	0.031302612
5	0x3ccf3853	0.025295412
6	0xbc9f03c8	-0.019410983
7	0x3ccd8b63	0.025090879
8	0xbd723c15	-0.05913933
9	0xbd976056	-0.073914215
